…
I0503 13:54:58.400508  9060 net.cpp:332] The NetState phase (1) differed from the phase (0) specified by a rule in layer mnist
I0503 13:54:58.400508  9060 net.cpp:58] Initializing net from parameters: 
name: "LeNet"
state {
  phase: TEST
  level: 0
  stage: ""
}
layer {
  name: "mnist"
  type: "Data"
  top: "data"
  top: "label"
  include {
    phase: TEST
  }
  transform_param {
    scale: 0.00390625
  }
  data_param {
    source: "../../../examples/mnist/Deal_Data/mnist_test_lmdb"
    batch_size: 100
    backend: LMDB
  }
}
layer {
  name: "conv1"
  type: "Convolution"
  bottom: "data"
  top: "conv1"
  param {
    lr_mult: 1
  }
  param {
    lr_mult: 2
  }
  convolution_param {
    num_output: 20
    kernel_size: 5
    stride: 1
    weight_filler {
      type: "xavier"
    }
    bias_filler {
      type: "constant"
    }
  }
}
layer {
  name: "pool1"
  type: "Pooling"
  bottom: "conv1"
  top: "pool1"
  pooling_param {
    pool: MAX
    kernel_size: 2
    stride: 2
  }
}
layer {
  name: "conv2"
  type: "Convolution"
  bottom: "pool1"
  top: "conv2"
  param {
    lr_mult: 1
  }
  param {
    lr_mult: 2
  }
  convolution_param {
    num_output: 50
    kernel_size: 5
    stride: 1
    weight_filler {
      type: "xavier"
    }
    bias_filler {
      type: "constant"
    }
  }
}
layer {
  name: "pool2"
  type: "Pooling"
  bottom: "conv2"
  top: "pool2"
  pooling_param {
    pool: MAX
    kernel_size: 2
    stride: 2
  }
}
layer {
  name: "ip1"
  type: "InnerProduct"
  bottom: "pool2"
  top: "ip1"
  param {
    lr_mult: 1
  }
  param {
    lr_mult: 2
  }
  inner_product_param {
    num_output: 500
    weight_filler {
      type: "xavier"
    }
    bias_filler {
      type: "constant"
    }
  }
}
layer {
  name: "relu1"
  type: "ReLU"
  bottom: "ip1"
  top: "ip1"
}
layer {
  name: "ip2"
  type: "InnerProduct"
  bottom: "ip1"
  top: "ip2"
  param {
    lr_mult: 1
  }
  param {
    lr_mult: 2
  }
  inner_product_param {
    num_output: 10
    weight_filler {
      type: "xavier"
    }
    bias_filler {
      type: "constant"
    }
  }
}
layer {
  name: "prob"
  type: "Softmax"
  bottom: "ip2"
  top: "prob"
}
I0503 13:54:58.400508  9060 layer_factory.hpp:77] Creating layer mnist
I0503 13:54:58.400508  9060 common.cpp:36] System entropy source not available, using fallback algorithm to generate seed instead.
I0503 13:54:58.401510  9060 net.cpp:100] Creating Layer mnist
I0503 13:54:58.401510  9060 net.cpp:418] mnist -> data
I0503 13:54:58.401510  9060 net.cpp:418] mnist -> label
I0503 13:54:58.401510  7532 db_lmdb.cpp:40] Opened lmdb ../../../examples/mnist/Deal_Data/mnist_test_lmdb
I0503 13:54:58.401510  9060 data_layer.cpp:41] output data size: 100,1,28,28
I0503 13:54:58.401510  9060 net.cpp:150] Setting up mnist
I0503 13:54:58.401510  9060 net.cpp:157] Top shape: 100 1 28 28 (78400)
I0503 13:54:58.401510  9060 net.cpp:157] Top shape: 100 (100)
I0503 13:54:58.401510  9060 net.cpp:165] Memory required for data: 314000
I0503 13:54:58.401510  9060 layer_factory.hpp:77] Creating layer conv1
I0503 13:54:58.401510  9060 net.cpp:100] Creating Layer conv1
I0503 13:54:58.401510  9060 net.cpp:444] conv1 <- data
I0503 13:54:58.401510  9060 net.cpp:418] conv1 -> conv1
I0503 13:54:58.401510  9060 net.cpp:150] Setting up conv1
I0503 13:54:58.401510  9060 net.cpp:157] Top shape: 100 20 24 24 (1152000)
I0503 13:54:58.401510  9060 net.cpp:165] Memory required for data: 4922000
I0503 13:54:58.401510  9060 layer_factory.hpp:77] Creating layer pool1
I0503 13:54:58.401510  9060 net.cpp:100] Creating Layer pool1
I0503 13:54:58.401510  9060 net.cpp:444] pool1 <- conv1
I0503 13:54:58.401510  9060 net.cpp:418] pool1 -> pool1
I0503 13:54:58.402510  9060 net.cpp:150] Setting up pool1
I0503 13:54:58.402510  9060 net.cpp:157] Top shape: 100 20 12 12 (288000)
I0503 13:54:58.402510  9060 net.cpp:165] Memory required for data: 6074000
I0503 13:54:58.402510  9060 layer_factory.hpp:77] Creating layer conv2
I0503 13:54:58.402510  9060 net.cpp:100] Creating Layer conv2
I0503 13:54:58.402510  9060 net.cpp:444] conv2 <- pool1
I0503 13:54:58.402510  9060 net.cpp:418] conv2 -> conv2
I0503 13:54:58.402510  9060 net.cpp:150] Setting up conv2
I0503 13:54:58.402510  9060 net.cpp:157] Top shape: 100 50 8 8 (320000)
I0503 13:54:58.402510  9060 net.cpp:165] Memory required for data: 7354000
I0503 13:54:58.402510  9060 layer_factory.hpp:77] Creating layer pool2
I0503 13:54:58.402510  9060 net.cpp:100] Creating Layer pool2
I0503 13:54:58.402510  9060 net.cpp:444] pool2 <- conv2
I0503 13:54:58.402510  9060 net.cpp:418] pool2 -> pool2
I0503 13:54:58.402510  9060 net.cpp:150] Setting up pool2
I0503 13:54:58.402510  9060 net.cpp:157] Top shape: 100 50 4 4 (80000)
I0503 13:54:58.402510  9060 net.cpp:165] Memory required for data: 7674000
I0503 13:54:58.402510  9060 layer_factory.hpp:77] Creating layer ip1
I0503 13:54:58.402510  9060 net.cpp:100] Creating Layer ip1
I0503 13:54:58.402510  9060 net.cpp:444] ip1 <- pool2
I0503 13:54:58.402510  9060 net.cpp:418] ip1 -> ip1
I0503 13:54:58.406512  9060 net.cpp:150] Setting up ip1
I0503 13:54:58.406512  9060 net.cpp:157] Top shape: 100 500 (50000)
I0503 13:54:58.406512  9060 net.cpp:165] Memory required for data: 7874000
I0503 13:54:58.406512  9060 layer_factory.hpp:77] Creating layer relu1
I0503 13:54:58.406512  9060 net.cpp:100] Creating Layer relu1
I0503 13:54:58.406512  9060 net.cpp:444] relu1 <- ip1
I0503 13:54:58.406512  9060 net.cpp:405] relu1 -> ip1 (in-place)
I0503 13:54:58.406512  9060 net.cpp:150] Setting up relu1
I0503 13:54:58.406512  9060 net.cpp:157] Top shape: 100 500 (50000)
I0503 13:54:58.406512  9060 net.cpp:165] Memory required for data: 8074000
I0503 13:54:58.406512  9060 layer_factory.hpp:77] Creating layer ip2
I0503 13:54:58.406512  9060 net.cpp:100] Creating Layer ip2
I0503 13:54:58.406512  9060 net.cpp:444] ip2 <- ip1
I0503 13:54:58.406512  9060 net.cpp:418] ip2 -> ip2
I0503 13:54:58.406512  9060 net.cpp:150] Setting up ip2
I0503 13:54:58.406512  9060 net.cpp:157] Top shape: 100 10 (1000)
I0503 13:54:58.406512  9060 net.cpp:165] Memory required for data: 8078000
I0503 13:54:58.406512  9060 layer_factory.hpp:77] Creating layer prob
I0503 13:54:58.406512  9060 net.cpp:100] Creating Layer prob
I0503 13:54:58.406512  9060 net.cpp:444] prob <- ip2
I0503 13:54:58.406512  9060 net.cpp:418] prob -> prob
I0503 13:54:58.406512  9060 net.cpp:150] Setting up prob
I0503 13:54:58.406512  9060 net.cpp:157] Top shape: 100 10 (1000)
I0503 13:54:58.406512  9060 net.cpp:165] Memory required for data: 8082000
I0503 13:54:58.406512  9060 net.cpp:228] prob does not need backward computation.
I0503 13:54:58.406512  9060 net.cpp:228] ip2 does not need backward computation.
I0503 13:54:58.406512  9060 net.cpp:228] relu1 does not need backward computation.
I0503 13:54:58.406512  9060 net.cpp:228] ip1 does not need backward computation.
…
