…
I0524 09:46:17.260664  5984 net.cpp:332] The NetState phase (0) differed from the phase (1) specified by a rule in layer accuracy
I0524 09:46:17.260664  5984 net.cpp:58] Initializing net from parameters: 
name: "LeNet"
state {
  phase: TRAIN
  level: 0
  stage: ""
}
layer {
  name: "mnist"
  type: "Data"
  top: "data"
  top: "label"
  include {
    phase: TRAIN
  }
  transform_param {
    scale: 0.00390625
  }
  data_param {
    source: "../../../examples/mnist/Deal_Data/mnist_train_lmdb"
    batch_size: 64
    backend: LMDB
  }
}
layer {
  name: "conv1"
  type: "Convolution"
  bottom: "data"
  top: "conv1"
  param {
    lr_mult: 1
  }
  param {
    lr_mult: 2
  }
  convolution_param {
    num_output: 20
    kernel_size: 5
    stride: 1
    weight_filler {
      type: "xavier"
    }
    bias_filler {
      type: "constant"
    }
  }
}
layer {
  name: "pool1"
  type: "Pooling"
  bottom: "conv1"
  top: "pool1"
  pooling_param {
    pool: MAX
    kernel_size: 2
    stride: 2
  }
}
layer {
  name: "conv2"
  type: "Convolution"
  bottom: "pool1"
  top: "conv2"
  param {
    lr_mult: 1
  }
  param {
    lr_mult: 2
  }
  convolution_param {
    num_output: 50
    kernel_size: 5
    stride: 1
    weight_filler {
      type: "xavier"
    }
    bias_filler {
      type: "constant"
    }
  }
}
layer {
  name: "pool2"
  type: "Pooling"
  bottom: "conv2"
  top: "pool2"
  pooling_param {
    pool: MAX
    kernel_size: 2
    stride: 2
  }
}
layer {
  name: "ip1"
  type: "InnerProduct"
  bottom: "pool2"
  top: "ip1"
  param {
    lr_mult: 1
  }
  param {
    lr_mult: 2
  }
  inner_product_param {
    num_output: 500
    weight_filler {
      type: "xavier"
    }
    bias_filler {
      type: "constant"
    }
  }
}
layer {
  name: "relu1"
  type: "ReLU"
  bottom: "ip1"
  top: "ip1"
}
layer {
  name: "ip2"
  type: "InnerProduct"
  bottom: "ip1"
  top: "ip2"
  param {
    lr_mult: 1
  }
  param {
    lr_mult: 2
  }
  inner_product_param {
    num_output: 10
    weight_filler {
      type: "xavier"
    }
    bias_filler {
      type: "constant"
    }
  }
}
layer {
  name: "loss"
  type: "HingeLoss"
  bottom: "ip2"
  bottom: "label"
  top: "loss"
}
I0524 09:46:17.260664  5984 layer_factory.hpp:77] Creating layer mnist
I0524 09:46:17.260664  5984 common.cpp:36] System entropy source not available, using fallback algorithm to generate seed instead.
I0524 09:46:17.260664  5984 net.cpp:100] Creating Layer mnist
I0524 09:46:17.260664  5984 net.cpp:418] mnist -> data
I0524 09:46:17.260664  5984 net.cpp:418] mnist -> label
I0524 09:46:17.260664 16736 db_lmdb.cpp:40] Opened lmdb ../../../examples/mnist/Deal_Data/mnist_train_lmdb
I0524 09:46:17.261665  5984 data_layer.cpp:41] output data size: 64,1,28,28
I0524 09:46:17.261665  5984 net.cpp:150] Setting up mnist
I0524 09:46:17.261665  5984 net.cpp:157] Top shape: 64 1 28 28 (50176)
I0524 09:46:17.261665  5984 net.cpp:157] Top shape: 64 (64)
I0524 09:46:17.261665  5984 net.cpp:165] Memory required for data: 200960
I0524 09:46:17.261665  5984 layer_factory.hpp:77] Creating layer conv1
I0524 09:46:17.261665  5984 net.cpp:100] Creating Layer conv1
I0524 09:46:17.261665  5984 net.cpp:444] conv1 <- data
I0524 09:46:17.261665  5984 net.cpp:418] conv1 -> conv1
I0524 09:46:17.261665  5984 net.cpp:150] Setting up conv1
I0524 09:46:17.261665  5984 net.cpp:157] Top shape: 64 20 24 24 (737280)
I0524 09:46:17.261665  5984 net.cpp:165] Memory required for data: 3150080
I0524 09:46:17.261665  5984 layer_factory.hpp:77] Creating layer pool1
I0524 09:46:17.261665  5984 net.cpp:100] Creating Layer pool1
I0524 09:46:17.261665  5984 net.cpp:444] pool1 <- conv1
I0524 09:46:17.261665  5984 net.cpp:418] pool1 -> pool1
I0524 09:46:17.261665  5984 net.cpp:150] Setting up pool1
I0524 09:46:17.261665  5984 net.cpp:157] Top shape: 64 20 12 12 (184320)
I0524 09:46:17.261665  5984 net.cpp:165] Memory required for data: 3887360
I0524 09:46:17.261665  5984 layer_factory.hpp:77] Creating layer conv2
I0524 09:46:17.262665  5984 net.cpp:100] Creating Layer conv2
I0524 09:46:17.262665  5984 net.cpp:444] conv2 <- pool1
I0524 09:46:17.262665  5984 net.cpp:418] conv2 -> conv2
I0524 09:46:17.262665  5984 net.cpp:150] Setting up conv2
I0524 09:46:17.262665  5984 net.cpp:157] Top shape: 64 50 8 8 (204800)
I0524 09:46:17.262665  5984 net.cpp:165] Memory required for data: 4706560
I0524 09:46:17.262665  5984 layer_factory.hpp:77] Creating layer pool2
I0524 09:46:17.262665  5984 net.cpp:100] Creating Layer pool2
I0524 09:46:17.262665  5984 net.cpp:444] pool2 <- conv2
I0524 09:46:17.262665  5984 net.cpp:418] pool2 -> pool2
I0524 09:46:17.262665  5984 net.cpp:150] Setting up pool2
I0524 09:46:17.262665  5984 net.cpp:157] Top shape: 64 50 4 4 (51200)
I0524 09:46:17.262665  5984 net.cpp:165] Memory required for data: 4911360
I0524 09:46:17.262665  5984 layer_factory.hpp:77] Creating layer ip1
I0524 09:46:17.262665  5984 net.cpp:100] Creating Layer ip1
I0524 09:46:17.262665  5984 net.cpp:444] ip1 <- pool2
I0524 09:46:17.262665  5984 net.cpp:418] ip1 -> ip1
I0524 09:46:17.266669  5984 net.cpp:150] Setting up ip1
I0524 09:46:17.266669  5984 net.cpp:157] Top shape: 64 500 (32000)
I0524 09:46:17.266669  5984 net.cpp:165] Memory required for data: 5039360
I0524 09:46:17.266669  5984 layer_factory.hpp:77] Creating layer relu1
I0524 09:46:17.266669  5984 net.cpp:100] Creating Layer relu1
I0524 09:46:17.266669  5984 net.cpp:444] relu1 <- ip1
I0524 09:46:17.266669  5984 net.cpp:405] relu1 -> ip1 (in-place)
I0524 09:46:17.266669  5984 net.cpp:150] Setting up relu1
I0524 09:46:17.266669  5984 net.cpp:157] Top shape: 64 500 (32000)
I0524 09:46:17.266669  5984 net.cpp:165] Memory required for data: 5167360
I0524 09:46:17.266669  5984 layer_factory.hpp:77] Creating layer ip2
I0524 09:46:17.266669  5984 net.cpp:100] Creating Layer ip2
I0524 09:46:17.266669  5984 net.cpp:444] ip2 <- ip1
I0524 09:46:17.266669  5984 net.cpp:418] ip2 -> ip2
I0524 09:46:17.266669  5984 net.cpp:150] Setting up ip2
I0524 09:46:17.266669  5984 net.cpp:157] Top shape: 64 10 (640)
I0524 09:46:17.266669  5984 net.cpp:165] Memory required for data: 5169920
I0524 09:46:17.266669  5984 layer_factory.hpp:77] Creating layer loss
I0524 09:46:17.266669  5984 net.cpp:100] Creating Layer loss
I0524 09:46:17.266669  5984 net.cpp:444] loss <- ip2
I0524 09:46:17.266669  5984 net.cpp:444] loss <- label
I0524 09:46:17.266669  5984 net.cpp:418] loss -> loss
I0524 09:46:17.266669  5984 net.cpp:150] Setting up loss
…
